asl/model/frame_mlp_asl.pt (torch, 912560 bytes, 22 tensors)

net.0.weight f4 [512, 63]
0	0x3deb2b09	0.11482818
1	0x3d3af45a	0.045643188
2	0xbd67edaf	-0.056623157
3	0x3e06712f	0.13129114
4	0xbd26598b	-0.04061274
5	0x3e81b5a7	0.25333902
6	0xbd2c44da	-0.04205785
7	0x3cacdbdd	0.021100933
8	0x3e4491fb	0.19196312
9	0xbd94fba8	-0.07274562
10	0x3e113197	0.14179073
11	0xbba27ea9	-0.0049589467
12	0xbd44e4d5	-0.048069794
13	0x3dafddfe	0.085872635
14	0xbd332072	-0.043732114
15	0x3da4af50	0.08041251
16	0xbd41bb4c	-0.04729776
17	0x3ea22838	0.3167131
18	0x3d0cdcc6	0.034390233
19	0xbcdf1575	-0.027231911
20	0x3e01efd1	0.12689139
21	0xbc0a5ec2	-0.008445444
22	0x3da48865	0.08033828
23	0x3ce5f237	0.028069599
24	0xbd927fec	-0.071533054
25	0x3c835cdc	0.01603549
26	0x3e1647f6	0.14675888
27	0xbd2aca5b	-0.041696887
28	0x3d3274a0	0.043568254
29	0x3e36c79f	0.17849587
30	0x3bcb7a8d	0.0062096776
31	0xbd28d994	-0.041223124
32	0x3c86cec7	0.016456021
33	0x3d0cc0ef	0.034363683
34	0xbc8a9488	-0.016916528
35	0x3dc0293e	0.09382866
36	0x3de9f789	0.11424167
37	0x3d710cad	0.05884998
38	0x3d9cbe27	0.07653456
39	0xbdd69d99	-0.10479278
40	0xbcca91d1	-0.024727734
41	0xbe060f3b	-0.13091747
42	0xbc0450f2	-0.0080759395
43	0xbd9364ec	-0.07196984
44	0xbd30e55c	-0.043187484
45	0x3c62c620	0.013841182
46	0x3cdf09fb	0.027226439
47	0xbc4d6d04	-0.012538198
48	0x3e017636	0.1264275
49	0xbe0a36bb	-0.1349744
50	0xbc96372e	-0.018336859
51	0xbd6d4a7b	-0.05793236
52	0x3be34c11	0.006936558
53	0xbe1ee31d	-0.15516324
54	0x3d2822b3	0.041048717
55	0xbdc9f7a2	-0.09861685
56	0xbd67ceb0	-0.056593597
57	0xbc8ccb4c	-0.017186783
58	0x3db46f93	0.088103436
59	0x3d0f9d47	0.0350621
60	0xbcbd447e	-0.023103949
61	0x3d0d1121	0.034440164
62	0xbe63078e	-0.2217085
63	0xbd18c5b4	-0.03729792
64	0xbdd8db32	-0.10588683
65	0x3d5c6b8c	0.053813502
66	0xbc705c1f	-0.014670401
67	0xbd234a1a	-0.03986559
68	0x3d24663e	0.04013657
69	0x3d833533	0.06406631
70	0xbdabb589	-0.083842345
71	0xbd8da89f	-0.069169275
72	0xbd9e6c47	-0.07735496
73	0x3d99c900	0.07509041
74	0xbd8acc91	-0.06777299
75	0x3da07306	0.07834439
76	0xbd6df8ec	-0.05809872
77	0xbcd62f08	-0.026145473
78	0x3dc61e3d	0.09673736
79	0x3d480f8a	0.048842944
80	0x3db54306	0.08850674
81	0x3d86022a	0.065433815
82	0xbcee419b	-0.029084018
83	0x3d7c8aaa	0.061655678
84	0x3d54a45b	0.051914554
85	0x3da0912e	0.07840191
86	0x3da88ce3	0.08229997
87	0x3d979c82	0.07402898
88	0x3db65e8d	0.08904753
89	0xbd8580b0	-0.06518686
90	0x3d81170b	0.06303223
91	0xbd25c396	-0.04046973
92	0x3dd5c601	0.10438157
93	0xbd9af832	-0.07566871
94	0x3bab0ec0	0.005220264
95	0x3da0bde9	0.078487225
96	0xbdab6397	-0.08368605
97	0x3dda664f	0.10664045
98	0x3c593db6	0.013259342
99	0x3db0d9ab	0.08635267
100	0xbda8f482	-0.08249761
101	0x3d793f99	0.060851667
102	0xbc9a4a6d	-0.018834317
103	0xbd185ef1	-0.03719992
104	0xbe04071a	-0.12893334
105	0xbc95afaa	-0.01827224
106	0xbc6046cf	-0.013688757
107	0x3dd98421	0.10620905
108	0x3b8a3147	0.0042173
109	0x3d68c242	0.056825884
110	0xbd3d77b1	-0.046256725
111	0x3d650ead	0.0559222
112	0xbc8d50fc	-0.01725053
113	0xbe17b3ab	-0.14814632
114	0xbdf8472a	-0.121229485
115	0xbd8a8e05	-0.06765369
116	0xbda387c4	-0.079848796
117	0x3d452f27	0.04814067
118	0x3cc5d52f	0.024149505
119	0xbda56fd8	-0.08077973
120	0xbd3fd5af	-0.046834644
121	0x3dfbc29b	0.122929774
122	0xbd6a8352	-0.057254143
123	0x3d2f8b9d	0.042857755
124	0x3db80060	0.089844465
125	0xbe3efabd	-0.18650337
126	0xbdd936c3	-0.10606148
127	0x3c413630	0.011792704
128	0x3db4c890	0.08827317
129	0xbc8e3991	-0.017361434
130	0x3dfbaf8d	0.12289343
131	0xbe2c1b13	-0.16807203
132	0x3d83dac1	0.06438208
133	0x3c42ccd9	0.01188966
134	0x3cfcf7c3	0.03087986
135	0x3d9a3343	0.07529309
136	0xbdc041e7	-0.0938757
137	0xbdc7d444	-0.09757283
138	0xbd9a9433	-0.07547798
139	0x3b0f9d9f	0.0021914018
140	0xbc35e879	-0.011102789
141	0x3d36dd05	0.044644374
142	0xbd8f126f	-0.06985938
143	0xbdb7d940	-0.08976984
144	0x3e14de01	0.14537813
145	0x3de441ef	0.11145388
146	0xbe29ca09	-0.16580977
147	0x3e103d61	0.14085914
148	0x3d3afa25	0.045648713
149	0x3c2db472	0.010602104
150	0xbd9e1e79	-0.07720656
151	0x3d3a7554	0.04552205
152	0xbc4791c6	-0.012180751
153	0xbd6f3131	-0.058396522
154	0x3dc490c4	0.09597924
155	0xbd26f9ed	-0.04076569
156	0xbd055e0f	-0.032560404
157	0xbd1ce003	-0.03829957
158	0xbdc8f278	-0.09811872
159	0x3dbb61cc	0.09149513
160	0xbd828c43	-0.06374409
161	0x3ae84841	0.0017721729
162	0xbd1439ee	-0.03618806
163	0xbe319a14	-0.17343932
164	0xbda2b2ec	-0.07944283
165	0x3d3df767	0.04637852
166	0xbd9d8f5a	-0.07693358
167	0x3c689ae3	0.014197084
168	0xbd06058e	-0.03272014
169	0x3dc07b93	0.0939857
170	0x3ca03d96	0.019560616
171	0xb982b1dd	-0.0002492805
172	0x3d9dc8e7	0.07704335
173	0xbd4056aa	-0.04695765
174	0xbd122567	-0.0356802
175	0xbe116c16	-0.14201388
176	0x3d9ca400	0.07648468
177	0xbc07ca6f	-0.00828801
178	0xbc36830a	-0.011139641
179	0xbe09fe47	-0.13475905
180	0xbcd9d150	-0.026589066
181	0x3d9d4c2e	0.07680546
182	0xbd481735	-0.048850257
183	0x3ce6b47d	0.028162235
184	0xbb7fdc66	-0.003904128
185	0x3a96dbbc	0.0011509578
186	0x3ddea591	0.10871423
187	0xbc4f6464	-0.012658212
188	0x3de3deee	0.11126505
189	0x3d1b7575	0.037953813
190	0x3e118253	0.14209871
191	0xbb1e6942	-0.0024171625
192	0xbdca4ede	-0.09878324
193	0x3d3ff991	0.046868864
194	0x3d4d70e2	0.05015648
195	0x3d77972b	0.0604469
196	0xbd8bc815	-0.06825272
197	0x3c3efbec	0.011656743
198	0x3dcceed6	0.10006492
199	0xbc44ac5a	-0.012003982
200	0x3cf43e95	0.029814998
201	0x3d8824af	0.06647622
202	0xbdd16f20	-0.102262735
203	0x3bdb230e	0.0066875285
204	0x3d9e81c4	0.077395946
205	0x3dd0f879	0.102036424
206	0x3e7734d0	0.2414124
207	0xbda66f08	-0.08126646
208	0xbd817784	-0.06321624
209	0x3da2280a	0.07917793
210	0x3cc1b75b	0.023647001
211	0x3dc1842e	0.094490394
212	0x3d9aea9e	0.07564281
213	0x3de3ab00	0.111166
214	0x3e06203a	0.13098231
215	0xbdc2732f	-0.09494626
216	0x3dd259cc	0.10271034
217	0xbc82b53b	-0.015955558
218	0x3d3cc2fc	0.04608439
219	0x3c823462	0.015894119
220	0x3dd4675c	0.10371277
221	0x3cb128e9	0.021625953
222	0x3d18b161	0.037278537
223	0xbce6d7bc	-0.028179042
224	0x3db15889	0.08659465
225	0x3cb2fe8c	0.021849893
226	0xbe1c9527	-0.15291272
227	0x3da14864	0.078751355
228	0xbdb72764	-0.0894306
229	0x3dcf2d9b	0.101161204
230	0x3d2d2401	0.042270664
231	0xbc406690	-0.011743203
232	0x3d338c5c	0.04383503
233	0xbdca2399	-0.09870071
234	0x3ddd3ec1	0.10802985
235	0xbded35f4	-0.11582556
236	0x3d8f1f31	0.06988371
237	0x3d394eb9	0.04524109
238	0xbd1ff6a4	-0.039053574
239	0x3d5af7b9	0.053458903
240	0x3d4fe5bd	0.050756205
241	0xbd7115c2	-0.05885864
242	0xbd2f69f1	-0.042825643
243	0xbd0025b1	-0.031285945
244	0x3da02a0d	0.078205206
245	0xbc1fedf2	-0.00976132
246	0xbdd9252d	-0.10602794
247	0xbdca7be6	-0.09886913
248	0x3e046944	0.1293078
249	0x3d5bdf4d	0.053679753
250	0xbd8df42f	-0.0693134
251	0x3d19784e	0.037468247
252	0xbdf8cf39	-0.121488996
253	0xbda21682	-0.07914449
254	0x3d758aa9	0.05994669
255	0xbdf93de1	-0.121700056

net.0.bias f4 [512]
0	0x3de53dba	0.11193414
1	0xbc5137f5	-0.012769689
2	0xbc5ae6dd	-0.013360706
3	0xbc8416db	-0.01612418
4	0x3e0997d2	0.13436821
5	0xbd10dc42	-0.035366304
6	0xbda03a7a	-0.078236535
7	0xbb44a2fe	-0.0030004377
8	0xbc0e2631	-0.008676098
9	0x3dfdf223	0.123996995
10	0x3ddee91c	0.10884306
11	0xbd14ffdb	-0.036376815
12	0xbd57d123	-0.052689683
13	0xbbcd1684	-0.0062587876
14	0x3d95f384	0.073218375
15	0xbd7365e4	-0.059423342
16	0x3d62266c	0.055212423
17	0xbd1d2757	-0.038367596
18	0x3d6f6e77	0.058454957
19	0xbdd53512	-0.10410513
20	0xbda76038	-0.08172649
21	0xbabfe401	-0.0014640094
22	0x3d104242	0.03521944
23	0xbbaa4c8e	-0.0051971143
24	0x3dd60757	0.10450619
25	0xbd72f9a5	-0.05932011
26	0x3d9dccc9	0.07705075
27	0x3aa0190c	0.0012214496
28	0x3dc6af20	0.09701371
29	0x3d4ff034	0.050766185
30	0xbde2b6c2	-0.110700145
31	0x3d9bfb9d	0.07616351
32	0x3c32bd2f	0.010909363
33	0x3b478b40	0.003044799
34	0xbddad724	-0.10685566
35	0xbd1ae86c	-0.03781931
36	0x3d3b1775	0.045676667
37	0x3d3c1f1c	0.045928106
38	0x3de4fa9e	0.11180614
39	0xbd0760c4	-0.033051267
40	0x3b83546b	0.004007866
41	0xbd68baa7	-0.05681863
42	0xbe02e08f	-0.12780975
43	0xbdd0d15f	-0.10196184
44	0xbd64d4da	-0.055867054
45	0xbce3c0f5	-0.02780197
46	0x3dd66241	0.10467959
47	0xbd730838	-0.05933401
48	0x3da0b285	0.0784655
49	0xbcab9899	-0.020946788
50	0x3db32baf	0.08748566
51	0xbe052ac9	-0.13004602
52	0xbd1b2eb2	-0.03788633
53	0x3dc67ad8	0.09691399
54	0xbd5cd82d	-0.0539171
55	0xbd25b9cf	-0.040460404
56	0x3d922ae0	0.07137084
57	0x3d9a6937	0.075395994
58	0xbcbb2a2b	-0.022847256
59	0x3d953c49	0.07286889
60	0x3d21fa70	0.039545476
61	0xbd80d44f	-0.06290495
62	0xbdddff7e	-0.10839747
63	0xbd6a008e	-0.057129435
64	0x3aeaf442	0.0017925578
65	0xbcaf356d	-0.02138778
66	0xbdc2aba8	-0.09505397
67	0xbd2aa953	-0.041665386
68	0x3d81aee3	0.06332185
69	0x3d81e276	0.06342022
70	0x3d281c01	0.04104233
71	0x3e176910	0.14786172
72	0x3b882b5b	0.004155559
73	0xbd341e8a	-0.043974437
74	0xbd3f16ad	-0.046652485
75	0x3babbc9c	0.00524099
76	0xbd444986	-0.04792168
77	0x3d25cb97	0.04047736
78	0xba810eb1	-0.0009846297
79	0xbda7189b	-0.0815899
80	0xbcced4f7	-0.025248034
81	0xbccec261	-0.025239171
82	0x3bb0ab51	0.0053915163
83	0x3bc472ee	0.005995146
84	0x3d2c2f1e	0.042037122
85	0x3d95336e	0.072852
86	0xbd87c50b	-0.0662938
87	0xbbc1d563	-0.0059153303
88	0xbddba462	-0.10724713
89	0xbd4dd26b	-0.0502495
90	0xbdc6476a	-0.0968159
91	0x3dc099e9	0.09404356
92	0x3af35383	0.0018564317
93	0x3d155115	0.03645428
94	0xbc4951ae	-0.01228754
95	0xbd3f2f39	-0.046675894
96	0xbc8496cf	-0.016185192
97	0x3d9205c9	0.0713001
98	0xb9dd5d85	-0.00042222082
99	0x3dc9caf3	0.098531626
100	0xbd8ecdcc	-0.069728464
101	0x3e054e92	0.13018253
102	0x3d6fa273	0.058504533
103	0x3d5ea2c4	0.054354444
104	0xbcdbd27b	-0.026833763
105	0x3cf129dd	0.029438907
106	0x3d80690b	0.06270035
107	0xb9d72c54	-0.00041041023
108	0xbd802981	-0.06257916
109	0x3bb9270a	0.005650406
110	0xbd7f833f	-0.062381025
111	0x3df45966	0.11931114
112	0xbd1edc5e	-0.038784377
113	0xbd6df6ad	-0.058096576
114	0xbd72e9e1	-0.059305076
115	0xbd4b2cb7	-0.04960319
116	0x3dcf9b27	0.10137015
117	0xbbf80314	-0.0075687263
118	0x3d9d15f8	0.07670206
119	0x3d27d501	0.04097462
120	0xbd3baebc	-0.045820937
121	0xbd0c65bc	-0.03427671
122	0x3dd7409d	0.10510371
123	0x3da5e631	0.08100546
124	0xbdb18966	-0.08668785
125	0x3da5a6f2	0.08088483
126	0x3d540130	0.051758945
127	0x3c832926	0.016010832
128	0x3db27ac2	0.087148204
129	0x3def8e29	0.11697037
130	0xbd72630a	-0.059176482
131	0x3d16fc21	0.036861543
132	0x3d939edc	0.072080344
133	0x3d902afe	0.0703945
134	0x3c5080f0	0.012726054
135	0x3e045c7f	0.1292591
136	0x3d8ecb37	0.06972354
137	0x3d424aea	0.047434725
138	0x3c698cc2	0.014254751
139	0xbdd02607	-0.10163503
140	0x3dbde3b8	0.092719495
141	0x3cbd239f	0.023088275
142	0xbddea491	-0.10871232
143	0xbdb40025	-0.0878909
144	0x3dd62d6b	0.104578815
145	0x3d880d5c	0.06643173
146	0x3ddc94fe	0.107706055
147	0xbdfbccba	-0.12294908
148	0x3c2e4b04	0.010638002
149	0x3c941328	0.01807554
150	0xbd13e2a4	-0.036104813
151	0xbe0919c0	-0.13388729
152	0xbcaca342	-0.021073941
153	0xbe0f95a9	-0.14021935
154	0xbda16d31	-0.07882155
155	0xbd884519	-0.06653804
156	0x3e0a5f70	0.13512969
157	0x3db39e2d	0.08770404
158	0x3d8a03e2	0.06739022
159	0xbd14a305	-0.03628828
160	0x3d5ca9ac	0.05387275
161	0x3e0f2fd7	0.13983093
162	0xbd27ff60	-0.04101503
163	0xbca956d8	-0.020671293
164	0x3e0f223b	0.13977902
165	0x3dc26c29	0.09493286
166	0x3db315e5	0.087444104
167	0xbdc2366f	-0.09483039
168	0x3db554d4	0.0885407
169	0xbd069b25	-0.0328628
170	0xbd9358d4	-0.07194677
171	0xbb6d39dd	-0.003619782
172	0xbda52f6f	-0.08065688
173	0xbcf939cc	-0.030423068
174	0xbd97e477	-0.07416623
175	0x3dc60404	0.09668735
176	0x3d87b05e	0.06625436
177	0xbc7e8d03	-0.0155365495
178	0x3de1fdd2	0.110347405
179	0xbd7fd67f	-0.06246042
180	0x3caed85e	0.021343406
181	0x3d8c318b	0.06845387
182	0x3c89c052	0.016815338
183	0x3dbd37b2	0.09239139
184	0xbc192dc4	-0.00934929
185	0x3cfaf60c	0.030634902
186	0xbdbeea0e	-0.09321986
187	0xbd0c8a83	-0.034311783
188	0xbce3f8d0	-0.027828604
189	0x3d88449d	0.06653712
190	0xbcb97704	-0.022639759
191	0x3cb88d69	0.022528367
192	0xbd053717	-0.03252324
193	0xbdcbc10c	-0.0994893
194	0x3e0d190c	0.13779086
195	0x3cac2f9b	0.021018794
196	0xbdcaca85	-0.09901909
197	0x3e13aec8	0.14422143
198	0xbc96d833	-0.018413639
199	0xbdd5305e	-0.10409616
200	0xbc6315a7	-0.013860143
201	0x3ddb7a2f	0.10716664
202	0xbd50cfa5	-0.050979275
203	0x3d87904c	0.06619319
204	0xbca7615f	-0.020432172
205	0x3c4b1592	0.0123952795
206	0x3e1f6089	0.15564169
207	0x3c956b39	0.018239604
208	0x3dfe9d62	0.12432362
209	0x3dd3382e	0.1031345
210	0xbc1d4b23	-0.0096004335
211	0x3c4ff1d1	0.012691931
212	0x3dbe5b12	0.09294714
213	0x3d6133d4	0.054981068
214	0xbd6dcfb5	-0.058059413
215	0x3d89e97f	0.06733989
216	0x3d4b9f30	0.04971236
217	0xbd53a9e5	-0.051675696
218	0xbdbae3fa	-0.09125514
219	0x3d9763db	0.07392093
220	0x3dd081ad	0.10180984
221	0xbdcaf4ee	-0.09909998
222	0x3da6981b	0.081344806
223	0xbdccd12e	-0.10000835
224	0xbd4bf7f6	-0.04979702
225	0x3d5c06e5	0.053717513
226	0xbd85bb25	-0.065298356
227	0x3d88c1f0	0.06677616
228	0xbdccb6ba	-0.0999579
229	0x3cde53ec	0.027139626
230	0x3d6d2101	0.057892803
231	0x3dabe94e	0.08394109
232	0xbd87ee80	-0.06637287
233	0xbd780ffa	-0.06056211
234	0xbd108d4a	-0.035290994
235	0x3d50e897	0.051003065
236	0xbda621d0	-0.08111918
237	0x3dcc81ff	0.09985732
238	0xbde00c22	-0.10939814
239	0xbdc69712	-0.09696783
240	0x3d528aaa	0.05140177
241	0x3de8f89d	0.11375544
242	0x3def8282	0.11694814
243	0x3cb6b2c4	0.022302039
244	0xbd65dd4d	-0.056119252
245	0x3d173847	0.036918905
246	0x3b5bc489	0.0033533892
247	0xbd9b256f	-0.07575499
248	0x3d38eff7	0.045150723
249	0xbba91054	-0.005159417
250	0xbd8231ab	-0.0635713
251	0xbda65064	-0.08120802
252	0xbdec0797	-0.11524885
253	0xbd677748	-0.05651024
254	0x3d88b331	0.06674803
255	0x3decb677	0.1155824

net.1.weight f4 [512]
0	0x3f82cbe2	1.021847
1	0x3f757117	0.95875686
2	0x3f6e82b7	0.93168205
3	0x3f7dd82f	0.99157995
4	0x3f7dcc4b	0.9913985
5	0x3f6990ae	0.9123639
6	0x3f5525bc	0.83260703
7	0x3f5c4b6d	0.8605259
8	0x3f6f6052	0.9350635
9	0x3f8302fb	1.0235285
10	0x3f84ff54	1.039042
11	0x3f7a1d98	0.97701406
12	0x3f8652e6	1.0494049
13	0x3f5fbae9	0.8739458
14	0x3f41685c	0.75549865
15	0x3f7d3597	0.98909897
16	0x3f8292d6	1.0201061
17	0x3f872e55	1.0561014
18	0x3f6cac03	0.9244997
19	0x3f842a6b	1.0325445
20	0x3f6a418b	0.9150626
21	0x3f799774	0.97496724
22	0x3f6e617d	0.93117505
23	0x3f780341	0.96879965
24	0x3f769699	0.96323544
25	0x3f7a47be	0.9776572
26	0x3f829c6d	1.0203987
27	0x3f84b63c	1.0368114
28	0x3f60ff23	0.8788931
29	0x3f62f7d3	0.886594
30	0x3f710d1b	0.9416062
31	0x3f7a8327	0.9785637
32	0x3f5b0673	0.85556716
33	0x3f6ec620	0.93271065
34	0x3f756fe8	0.9587388
35	0x3f5587b2	0.8341018
36	0x3f81ee80	1.015091
37	0x3f7f2afc	0.99674964
38	0x3f86cc34	1.0531068
39	0x3f59c75c	0.85069823
40	0x3f588ffa	0.8459469
41	0x3f6cd81a	0.92517245
42	0x3f7fbc90	0.998971
43	0x3f81e031	1.0146543
44	0x3f7333c3	0.9500086
45	0x3f597e75	0.84958583
46	0x3f773562	0.9656583
47	0x3f818404	1.0118413
48	0x3f701d60	0.9379482
49	0x3f8444a0	1.0333443
50	0x3f7366eb	0.95078915
51	0x3f7256e7	0.9466385
52	0x3f5e6462	0.8687192
53	0x3f679ff2	0.9047843
54	0x3f817f35	1.0116946
55	0x3f5435c0	0.82894516
56	0x3f87a048	1.0595789
57	0x3f642ef6	0.89134157
58	0x3f79533f	0.9739265
59	0x3f6c4182	0.92287457
60	0x3f6d6349	0.9272962
61	0x3f849541	1.0358049
62	0x3f763778	0.9617839
63	0x3f68914f	0.90846723
64	0x3f837074	1.0268693
65	0x3f61185b	0.8792779
66	0x3f6a5a42	0.9154397
67	0x3f832f35	1.0248781
68	0x3f778c15	0.96698123
69	0x3f61da3a	0.8822361
70	0x3f67f5c6	0.90609396
71	0x3f864d2f	1.0492305
72	0x3f8974f1	1.0738813
73	0x3f7163cc	0.942929
74	0x3f75c958	0.9601035
75	0x3f5f799e	0.8729495
76	0x3f75b761	0.9598294
77	0x3f712e6b	0.94211453
78	0x3f69bbcc	0.9130218
79	0x3f70bddc	0.940397
80	0x3f58aea0	0.84641457
81	0x3f8257f0	1.0183086
82	0x3f65aafa	0.89714015
83	0x3f6a392c	0.9149349
84	0x3f6c2dd5	0.92257434
85	0x3f6e6971	0.9312964
86	0x3f586b46	0.84538686
87	0x3f5a4d0e	0.85273826
88	0x3f6dd505	0.92903167
89	0x3f823b1a	1.0174286
90	0x3f65c46f	0.8975286
91	0x3f6bf313	0.92167777
92	0x3f45b7a5	0.77233344
93	0x3f69f7f1	0.91393954
94	0x3f62e5da	0.88631976
95	0x3f688bd5	0.90838367
96	0x3f6b6f54	0.9196675
97	0x3f74292c	0.95375323
98	0x3f813bb1	1.0096341
99	0x3f84aa7f	1.0364531
100	0x3f76bd9f	0.9638309
101	0x3f77ac68	0.96747446
102	0x3f677745	0.90416366
103	0x3f86b6d2	1.0524542
104	0x3f6b7476	0.9197458
105	0x3f8003ec	1.0001197
106	0x3f780f4c	0.9689834
107	0x3f7b600b	0.98193425
108	0x3f84b2d3	1.0367073
109	0x3f6f9b89	0.935967
110	0x3f84d8de	1.0378683
111	0x3f80e53f	1.006996
112	0x3f7b7be7	0.98235935
113	0x3f6be8cb	0.9215209
114	0x3f85db74	1.0457597
115	0x3f7fb610	0.9988718
116	0x3f76a8d7	0.9635138
117	0x3f80fd0e	1.0077226
118	0x3f82eeeb	1.0229162
119	0x3f664cec	0.89961123
120	0x3f42c674	0.76084065
121	0x3f7d3bd5	0.9891942
122	0x3f800e78	1.0004416
123	0x3f82a049	1.0205165
124	0x3f7bb42d	0.983218
125	0x3f6f0f72	0.9338294
126	0x3f602883	0.87561816
127	0x3f807c5b	1.003795
128	0x3f6edcbf	0.9330558
129	0x3f80ac4e	1.0052583
130	0x3f63ff94	0.89061856
131	0x3f6aaa72	0.9166633
132	0x3f76e5ca	0.9644438
133	0x3f824be6	1.0179412
134	0x3f5ea104	0.8696444
135	0x3f527e1e	0.8222369
136	0x3f7b7a5e	0.9823359
137	0x3f73ed9d	0.95284444
138	0x3f664edd	0.89964086
139	0x3f624f97	0.88402694
140	0x3f7c3a10	0.98526096
141	0x3f66f2dd	0.9021433
142	0x3f70bd28	0.9403863
143	0x3f83c7a9	1.0295306
144	0x3f5cbe9a	0.86228335
145	0x3f52262c	0.82089496
146	0x3f8001ef	1.000059
147	0x3f6b1bd6	0.9183935
148	0x3f704533	0.9385559
149	0x3f8a61c8	1.081109
150	0x3f68d53a	0.9095036
151	0x3f730c9b	0.9494111
152	0x3f694b9a	0.91130984
153	0x3f7683a4	0.9629462
154	0x3f679dda	0.9047524
155	0x3f701edf	0.93797106
156	0x3f8476ae	1.0348718
157	0x3f6d0e3e	0.92599857
158	0x3f8d52c7	1.1040887
159	0x3f6e95e4	0.93197465
160	0x3f8b1fe0	1.0869102
161	0x3f8a9820	1.0827675
162	0x3f765c0d	0.9623421
163	0x3f5ce3b0	0.86284924
164	0x3f851fa9	1.0400287
165	0x3f80c141	1.0058976
166	0x3f718fd6	0.943601
167	0x3f7b912d	0.98268396
168	0x3f82456a	1.0177433
169	0x3f5dad19	0.8659225
170	0x3f76c741	0.9639779
171	0x3f60564b	0.8763167
172	0x3f7dd0fd	0.99147016
173	0x3f5ce198	0.8628173
174	0x3f5b68d8	0.85706854
175	0x3f7842dc	0.9697702
176	0x3f72a379	0.9478069
177	0x3f5e56bb	0.8685109
178	0x3f73869e	0.95127285
179	0x3f7f8a11	0.9982005
180	0x3f6ca73c	0.9244268
181	0x3f82f818	1.0231962
182	0x3f59530a	0.8489233
183	0x3f631530	0.88704205
184	0x3f6bc74d	0.92100984
185	0x3f6609ba	0.8985859
186	0x3f811db2	1.0087187
187	0x3f7501ca	0.95705855
188	0x3f848432	1.0352843
189	0x3f66a34e	0.90092933
190	0x3f681bdc	0.9066751
191	0x3f869fa6	1.0517471
192	0x3f6a40ce	0.91505134
193	0x3f61b76d	0.8817051
194	0x3f8a4719	1.0802947
195	0x3f70cb3c	0.9406011
196	0x3f620854	0.8829396
197	0x3f7f6f2a	0.99779
198	0x3f853b8a	1.0408795
199	0x3f7a3b52	0.97746766
200	0x3f7d50eb	0.98951596
201	0x3f6890a1	0.90845686
202	0x3f8b0c4f	1.0863131
203	0x3f57512d	0.8410824
204	0x3f58c6b1	0.8467818
205	0x3f813414	1.0094018
206	0x3f657ea9	0.89646393
207	0x3f88335e	1.0640676
208	0x3f8644b3	1.0489715
209	0x3f7bcbec	0.98358035
210	0x3f6c3be8	0.9227891
211	0x3f5c1a3b	0.85977525
212	0x3f826beb	1.0189184
213	0x3f79a54b	0.9751784
214	0x3f6b3582	0.9187852
215	0x3f6e8105	0.9316562
216	0x3f76493e	0.9620551
217	0x3f8354b8	1.0260229
218	0x3f759659	0.9593254
219	0x3f7ad8a8	0.9798684
220	0x3f82c7ab	1.0217184
221	0x3f7ce238	0.9878268
222	0x3f620d7c	0.88301826
223	0x3f60f841	0.87878805
224	0x3f732272	0.94974434
225	0x3f80961f	1.0045813
226	0x3f69bf70	0.91307735
227	0x3f7d8190	0.9902582
228	0x3f83b8f0	1.0290813
229	0x3f80e65d	1.0070301
230	0x3f52faa4	0.824137
231	0x3f5f7227	0.8728356
232	0x3f7bce24	0.9836142
233	0x3f85b531	1.044592
234	0x3f59833e	0.84965885
235	0x3f72eef7	0.9489588
236	0x3f75b625	0.95981055
237	0x3f6bff5f	0.9218654
238	0x3f62fc3d	0.88666135
239	0x3f68d27c	0.90946174
240	0x3f7dc178	0.99123335
241	0x3f8085ac	1.0040793
242	0x3f8082fd	1.0039974
243	0x3f44f63a	0.7693821
244	0x3f5c6d3a	0.86104167
245	0x3f80e4a2	1.0069773
246	0x3f87cf3f	1.0610121
247	0x3f5bc71b	0.85850686
248	0x3f6f94dd	0.9358652
249	0x3f60c23c	0.8779638
250	0x3f6e057c	0.9297712
251	0x3f871076	1.0551898
252	0x3f861ee9	1.0478183
253	0x3f79e3aa	0.9761301
254	0x3f58ab2b	0.8463618
255	0x3f842c39	1.0325996

net.1.bias f4 [512]
0	0xbbfc85e8	-0.0077063926
1	0xbd298db0	-0.04139489
2	0xbc6e0830	-0.014528319
3	0xbba702a3	-0.00509675
4	0xbbea9a53	-0.00715951
5	0xbd7b5676	-0.061361752
6	0xbdb40355	-0.08789698
7	0xbd7a7346	-0.06114509
8	0xbd23547b	-0.03987549
9	0xbbf653cc	-0.0075173136
10	0x3c9e5c65	0.019331167
11	0xbd133eb2	-0.035948463
12	0x3b4c057e	0.0031131203
13	0xbdaee08c	-0.08538923
14	0xbdd85594	-0.10563198
15	0xbc017f8f	-0.0079039475
16	0xbcc3d80b	-0.023906728
17	0x3bb17923	0.005416052
18	0xbd728fef	-0.059219297
19	0xbbda609b	-0.0066643483
20	0xbd3ae369	-0.04562703
21	0xbcfa107c	-0.030525438
22	0xbd4fa84d	-0.050697614
23	0xbd18d1d7	-0.037309494
24	0xbcfbfd36	-0.030760389
25	0xbc9a48cd	-0.018833542
26	0xbcb0eb63	-0.021596616
27	0x3b4b970e	0.0031065377
28	0xbdbcad69	-0.09212763
29	0xbd3fe290	-0.046846926
30	0xbd562cca	-0.052288808
31	0xbd1bd328	-0.03804317
32	0xbd723ce2	-0.059140094
33	0xbd0159c5	-0.03157975
34	0xbc7d2dae	-0.015452785
35	0xbdbfd9ba	-0.093677
36	0xbcb410e8	-0.021980718
37	0xbc9bad43	-0.019003516
38	0xbbe12175	-0.0068704435
39	0xbdfb061a	-0.12257023
40	0xbd865643	-0.06559422
41	0xbcf49a5b	-0.029858759
42	0xbc58cd06	-0.013232475
43	0xbcd8c959	-0.026463198
44	0xbd0b5f03	-0.034026157
45	0xbd3a354e	-0.04546099
46	0xbccb649a	-0.024828244
47	0xbce1ca9f	-0.027562438
48	0xbd1ea276	-0.038729154
49	0xbcb5070a	-0.022098083
50	0xbcde6d7f	-0.027151821
51	0xbd3bb416	-0.04582604
52	0xbd735d6e	-0.059415273
53	0xbd2ffa37	-0.042963233
54	0x3b58ee85	0.0033101153
55	0xbd6e19a9	-0.05812994
56	0xbbacede6	-0.005277383
57	0xbd6bb212	-0.057542868
58	0xbc7dae3e	-0.015483437
59	0xbd86c55e	-0.065806136
60	0xbd2ad6b6	-0.04170867
61	0x3c8741f7	0.016510947
62	0xbd2b8b93	-0.041881155
63	0xbd2431c9	-0.04008654
64	0x3c829f28	0.015945032
65	0xbd40a704	-0.04703428
66	0xbd5c8570	-0.053838193
67	0xbca92f9f	-0.02065259
68	0xbcc75816	-0.024333995
69	0xbd82bf1c	-0.063841075
70	0xbd258c6f	-0.04041713
71	0x3c27a6ef	0.010232671
72	0xb79f6861	-1.9002882e-05
73	0xbcb11bae	-0.021619644
74	0xbcecd92f	-0.028912155
75	0xbd8e728a	-0.0695544
76	0xbcd7b083	-0.026329285
77	0xbcdb2ab7	-0.026753766
78	0xbd3ad0fd	-0.045609463
79	0xbd0550b4	-0.032547668
80	0xbd5cf866	-0.05394783
81	0xbca608ea	-0.020267922
82	0xbdae084d	-0.08497677
83	0xbca1bd1f	-0.0197435
84	0xbd91c58c	-0.07117757
85	0xbd10a408	-0.035312682
86	0xbd869351	-0.06571067
87	0xbd5c79c2	-0.053827055
88	0xbd0edfa0	-0.034881234
89	0xbc949eca	-0.018142123
90	0xbdab6d73	-0.08370485
91	0xbd120b36	-0.035655223
92	0xbe036f35	-0.12835391
93	0xbd481d7f	-0.048856255
94	0xbd87c994	-0.06630245
95	0xbd76508c	-0.06013541
96	0xbd0c6dbc	-0.03428434
97	0xbd16ba13	-0.036798548
98	0xbc3e7767	-0.011625147
99	0xbc0362c1	-0.00801915
100	0xbd0b6236	-0.034029208
101	0xbc8af450	-0.0169622
102	0xbd6e6529	-0.058201943
103	0xbbbfea53	-0.005856791
104	0xbd44590f	-0.047936495
105	0xbd1a6a40	-0.037698984
106	0xbc86a716	-0.016437095
107	0xbbcd5a7c	-0.00626689
108	0x3a2af77a	0.0006521862
109	0xbd2856fa	-0.041098572
110	0xb96167c1	-0.00021496323
111	0xbc1d166b	-0.009587864
112	0xbc757c54	-0.014983255
113	0xbd07db57	-0.033168163
114	0xbaf2da3b	-0.0018528173
115	0x3b421cb7	0.0029619166
116	0xbc8a99ec	-0.016919099
117	0xbbd36674	-0.0064514223
118	0xbc8a286c	-0.016864978
119	0xbd5c72d4	-0.053820446
120	0xbe02c956	-0.12772116
121	0xbb1b9762	-0.0023741354
122	0x3c1d7b35	0.009611894
123	0x3bbe38f5	0.0058051297
124	0xbc567e90	-0.013091698
125	0xbcebb8f1	-0.02877471
126	0xbd732646	-0.059362672
127	0xbc8425c4	-0.01613129
128	0xbd3ee8eb	-0.046608847
129	0x3c1cbb5e	0.009566156
130	0xbd80e197	-0.06293028
131	0xbd241441	-0.040058378
132	0xbc87d6b1	-0.016581865
133	0xbcbf0480	-0.023317575
134	0xbd470e5e	-0.048597686
135	0xbde19171	-0.11014069
136	0xbd212e70	-0.039350927
137	0xbd42b957	-0.047540035
138	0xbd76b8df	-0.0602349
139	0xbd4a95e1	-0.049459342
140	0xbcd473ca	-0.025934119
141	0xbd57f6f6	-0.052725755
142	0xbcb83fae	-0.022491302
143	0xbc4d065b	-0.012513722
144	0xbd43da8b	-0.04781584
145	0xbddd1336	-0.1079468
146	0xbc4660d5	-0.0121080475
147	0xbd12bd90	-0.035825312
148	0xbd3d1dda	-0.046171047
149	0x3a23dd4d	0.0006250933
150	0xbd1a12d9	-0.03761563
151	0xbd535eb1	-0.051603977
152	0xbc8531cc	-0.016259097
153	0xbd081133	-0.033219527
154	0xbd20b338	-0.039233416
155	0xbcbf935b	-0.023385694
156	0xbc3e9f7e	-0.011634706
157	0xbd3cdf48	-0.046111375
158	0x3c4f4580	0.012650847
159	0xbd3d60bc	-0.04623483
160	0x3b07686d	0.0020661608
161	0x3ba80d5d	0.005128546
162	0xbd25add1	-0.040448967
163	0xbd96a3ab	-0.07355436
164	0x3ba63ec7	0.0050734016
165	0xbc2ed5a9	-0.010671058
166	0xbcc93eb8	-0.02456604
167	0xbcd6666e	-0.02617189
168	0xbc010ec1	-0.007877053
169	0xbd7190eb	-0.058976095
170	0xbcbac7a8	-0.022800282
171	0xbd8ce29c	-0.0687916
172	0xbd0eb6d5	-0.03484233
173	0xbdd9f082	-0.10641576
174	0xbdb0a5c5	-0.08625368
175	0xbcd3b165	-0.025841424
176	0xbc953572	-0.018213961
177	0xbd8b20d2	-0.06793369
178	0xbcb89cea	-0.02253576
179	0x3ba88767	0.0051430943
180	0xbcc5b4a2	-0.024133984
181	0xbc08692b	-0.008325855
182	0xbd952d27	-0.07284003
183	0xbd27ee2a	-0.040998615
184	0xbd529bb5	-0.051418025
185	0xbd6aa9d3	-0.057290863
186	0xbc7ee306	-0.015557056
187	0xbcc86269	-0.024460988
188	0xbbf2e811	-0.0074129184
189	0xbd67c2d2	-0.05658228
190	0xbd4f58bf	-0.050621744
191	0xbb7cf248	-0.003859656
192	0xbd76efdf	-0.060287353
193	0xbd8d143f	-0.06888627
194	0x3ae3348d	0.0017334387
195	0xbcdb2a5c	-0.026753597
196	0xbd08830e	-0.03332811
197	0xbca7db90	-0.020490438
198	0xbc2028b6	-0.009775331
199	0xbcea0599	-0.028567122
200	0xbcb9c245	-0.022675643
201	0xbd26f050	-0.040756524
202	0xbc1591b0	-0.009128973
203	0xbdaeb6ac	-0.08530936
204	0xbd9f4e54	-0.07778612
205	0xbd1f82af	-0.03894299
206	0xbd50cbef	-0.050975736
207	0x3c29dae2	0.010367127
208	0x3c331f9b	0.010932828
209	0xbcf93db7	-0.030424936
210	0xbc963545	-0.018335948
211	0xbd4c18c4	-0.049828306
212	0x3c57e471	0.013177023
213	0xbca8d850	-0.020610958
214	0xbd0ef0bb	-0.034897547
215	0xbd6e8b29	-0.058238182
216	0xbca6884b	-0.020328661
217	0xbd164f6d	-0.03669684
218	0xbc7f98b2	-0.01560037
219	0xbb4e0293	-0.003143464
220	0xbb4a86a8	-0.0030903015
221	0xbc93fb05	-0.018064031
222	0xbdb46cc0	-0.08809805
223	0xbd3eb949	-0.04656342
224	0xbd1e8769	-0.038703356
225	0xbc05ffb7	-0.008178643
226	0xbcc75098	-0.024330422
227	0xbc2e0931	-0.010622309
228	0x3b0dbdc2	0.0021627997
229	0x3a1826bf	0.00058041135
230	0xbddc8e6d	-0.10769353
231	0xbd725354	-0.0591615
232	0xbc6bbf79	-0.014388912
233	0x3baacd4e	0.0052124625
234	0xbd927384	-0.07150939
235	0xba9f55cb	-0.0012156306
236	0xbce59c9c	-0.028028779
237	0xbd284439	-0.041080687
238	0xbd84ad07	-0.06478315
239	0xbceb11de	-0.028695043
240	0xbbadd464	-0.00530486
241	0xbc87aa66	-0.016560744
242	0xb8c935b4	-9.59443e-05
243	0xbe0cd80e	-0.13754293
244	0xbd8cce46	-0.06875281
245	0x3b6b511f	0.0035906506
246	0xbc27abc8	-0.010233827
247	0xbdb97587	-0.0905562
248	0xbd2497e1	-0.040183906
249	0xbd517e58	-0.05114588
250	0xbce42202	-0.027848247
251	0xbc1fde7e	-0.009757636
252	0x3b279b8e	0.0025574896
253	0xbcc9c5ab	-0.024630388
254	0xbd67617e	-0.05648946
255	0xbc2e381f	-0.0106334975

net.3.weight f4 [256, 512]
0	0xbcc7407b	-0.024322739
1	0xbd79855c	-0.060918197
2	0x3c8d0483	0.017214065
3	0x3da00e85	0.078152694
4	0xbc512c83	-0.01276696
5	0xbb7ec98e	-0.003887746
6	0xbb753509	-0.0037415645
7	0xbcd4d68b	-0.025981208
8	0x3d0696a3	0.032858502
9	0x3d54ac29	0.051921997
10	0x3c6b54e1	0.014363498
11	0x3cc7f77e	0.024410006
12	0x3d8e7743	0.06956341
13	0xbcd3ef2e	-0.025870886
14	0xbd9aa591	-0.075511105
15	0xbd3db84f	-0.04631835
16	0xbd83bb19	-0.064321704
17	0xbae5d4d7	-0.0017534745
18	0xbd3b824e	-0.045778565
19	0x3be31e50	0.0069311038
20	0x3cf079e7	0.029355003
21	0x3ca04c95	0.019567767
22	0xbc4062b5	-0.011742284
23	0x3c7d3b1b	0.015455986
24	0xbd359fa5	-0.044341702
25	0xbca6a1b0	-0.02034077
26	0x3d3be12f	0.04586905
27	0xbd52f470	-0.051502645
28	0xbb9fa706	-0.0048722057
29	0xbd011d61	-0.03152216
30	0x3c1afac8	0.009459205
31	0xbc590ea4	-0.0132481195
32	0xbd82a184	-0.06378463
33	0x3b88c0c2	0.004173369
34	0x3c9c9129	0.019112187
35	0x3c6fa23b	0.014626081
36	0xbb774d1d	-0.0037735172
37	0xbbd55932	-0.006510877
38	0xbd122c6a	-0.035686888
39	0x3c94655d	0.01811474
40	0x3d1adcf2	0.037808366
41	0x3c4a7377	0.0123566305
42	0x3c9123de	0.017717298
43	0x3ceb83bb	0.028749337
44	0xbc413a34	-0.011793662
45	0x3c0a2ff0	0.008434281
46	0x3c0021c1	0.007820548
47	0x3c11316d	0.008861882
48	0xbca41778	-0.020030722
49	0x3bb3bcd7	0.005485158
50	0xbd36b7de	-0.044608943
51	0xbb2fbb0f	-0.0026814376
52	0x3ab77fa2	0.001399983
53	0xbd8df641	-0.06931735
54	0xbd61281e	-0.0549699
55	0x3ca60442	0.020265702
56	0xbca5d60e	-0.02024367
57	0x3be1d6a6	0.006892043
58	0xbd162c7b	-0.036663514
59	0x3c664608	0.014054783
60	0xbd338880	-0.04383135
61	0x3aab653e	0.0013076437
62	0xbd2d6d2a	-0.042340435
63	0xbc21e1a1	-0.009880454
64	0x3c21da39	0.0098786885
65	0x3d82ff51	0.06396354
66	0x3d2ce3ef	0.042209562
67	0xbcdf8054	-0.027282871
68	0xb9a6a5ca	-0.0003178551
69	0xbdc684d3	-0.09693303
70	0x3d0280ce	0.03186112
71	0xbd02f61c	-0.03197299
72	0x3dc0b1cc	0.09408912
73	0xbd003ec6	-0.031309865
74	0x3c34a9f8	0.011026852
75	0xbcbfc230	-0.023408026
76	0x3d7ea8f8	0.06217286
77	0x3c808e07	0.015692724
78	0x3adc4ecc	0.0016808151
79	0x3cf10b66	0.02942438
80	0xbd1a9f18	-0.03774938
81	0xbc51b296	-0.012798926
82	0xbd3faae6	-0.04679384
83	0x397cebe0	0.00024120463
84	0xbc8a4b9f	-0.016881762
85	0xbd3c7183	-0.04600669
86	0xbcd7600c	-0.026290916
87	0xbd0a552c	-0.033772632
88	0x3cc8c513	0.024508035
89	0x3cc11895	0.023571292
90	0x3c8ec4f4	0.017427899
91	0x3bf69062	0.007524536
92	0x3d4967f8	0.049171418
93	0x3d4b5405	0.049640674
94	0x3cdf3be9	0.027250247
95	0xbc382d0c	-0.011241209
96	0xbb2a0a10	-0.002594594
97	0xbd4cc8ea	-0.049996294
98	0x3d4a33d7	0.049365845
99	0xbda69025	-0.08132962
100	0x3d4101bd	0.0471208
101	0x3cb3375f	0.021876989
102	0x3c784ff0	0.015155777
103	0x3c9d8816	0.01922993
104	0xbcdff14e	-0.027336743
105	0xbd722d27	-0.059125092
106	0x3d165412	0.03670127
107	0xbd4a2616	-0.049352728
108	0xbcb7315f	-0.02236241
109	0x3d7c8ed8	0.061659664
110	0x3db1a6ac	0.08674368
111	0xbc558097	-0.0130311465
112	0x3c8bebc3	0.017080193
113	0x3d088efb	0.03333948
114	0x3c02c87b	0.007982369
115	0xbd4ac976	-0.049508534
116	0x3c19b2dc	0.009381022
117	0xbd817efc	-0.063230485
118	0xbc9c4762	-0.019077007
119	0xbc1078e3	-0.008817884
120	0x3cf89ef6	0.030349236
121	0x3c9df770	0.019283026
122	0x3d48db50	0.049037278
123	0xbc03d3e6	-0.008046126
124	0x3d3edf5c	0.04659973
125	0x3d6a7865	0.057243723
126	0x3d3ec48e	0.046574168
127	0x3c331eb3	0.010932612
128	0xbd3114e4	-0.043232813
129	0x3d103a7b	0.03521202
130	0x3bd168f8	0.006390687
131	0x3d3f49f3	0.046701383
132	0x3c67c438	0.014145903
133	0xbc5b3183	-0.013378504
134	0xbb0e7c6d	-0.0021741644
135	0xbc8cfb78	-0.017209753
136	0x3d0ee372	0.034884878
137	0xbd12ab85	-0.035808105
138	0xbc48e186	-0.0122608
139	0xbbe263c6	-0.0069088666
140	0xbd2b4e89	-0.041822944
141	0xbcd84b6c	-0.026403151
142	0x3bfd9320	0.007738486
143	0x3b88b2ae	0.004171691
144	0x3d2161d9	0.039399955
145	0x3cce7550	0.025202423
146	0x3b5b45cd	0.0033458353
147	0x3c94b50d	0.018152738
148	0xbd3fa758	-0.04679045
149	0xbd610b4b	-0.05494241
150	0x3d890576	0.06690495
151	0x3c77df1a	0.015128875
152	0x3c832193	0.01600722
153	0xbc7311cc	-0.014835786
154	0xbd04c880	-0.032417774
155	0xbce7bcd5	-0.028288284
156	0x3ca24321	0.0198074
157	0x3c133840	0.008985579
158	0x3d71702f	0.058944877
159	0x3b1ee3e3	0.0024244718
160	0xbc7b15d4	-0.015325028
161	0xbd7f41ab	-0.062318485
162	0x3c7a2b91	0.015269176
163	0x3d0b267b	0.033972245
164	0x3d7ea151	0.062165562
165	0xbd370a5f	-0.044687625
166	0x3c9dad48	0.019247666
167	0xbaa670c1	-0.0012698398
168	0xbc3dcedc	-0.011584964
169	0xbc93a942	-0.018025044
170	0x3c4c5a04	0.012472633
171	0x3cc24f36	0.023719411
172	0x3b80a57c	0.0039259773
173	0x3d56c807	0.052436855
174	0x3c4423d0	0.011971429
175	0xbc0bbdcd	-0.008529139
176	0x3b7b394c	0.0038333712
177	0xbcaf14a6	-0.02137215
178	0x3c1b139e	0.009465126
179	0xbbacc454	-0.0052724276
180	0xbc173595	-0.009229084
181	0x3d7bf1e7	0.061509993
182	0xbca637d3	-0.020290291
183	0xbddd3bd0	-0.10802424
184	0x3d1ecd04	0.038769737
185	0xbcec4c39	-0.02884494
186	0xbc7f13b2	-0.015568661
187	0xbce474b1	-0.027887674
188	0x3dcf7a12	0.10130705
189	0xbd9e3f64	-0.077269346
190	0xbcfbc837	-0.030735118
191	0xbd5efe57	-0.054441776
192	0xbc960d89	-0.018317001
193	0x3d99b76a	0.075056866
194	0xbdb663da	-0.08905764
195	0xbcbce5a6	-0.023058724
196	0x3d13cfed	0.036086965
197	0xbd3309b0	-0.04371041
198	0xbd021876	-0.03176161
199	0x3ad3aae8	0.0016148956
200	0xbc74aed9	-0.014934265
201	0xbca4207f	-0.020035027
202	0xbc34d04d	-0.011035991
203	0xbcbe54e5	-0.02323384
204	0x3c808e40	0.01569283
205	0x3c582f46	0.013194865
206	0xbd2ae94c	-0.041726395
207	0xbbef3ad2	-0.007300713
208	0xbd578b50	-0.052623093
209	0xbbdfdd7f	-0.0068318243
210	0xbc678bfb	-0.014132495
211	0xbd2a78f2	-0.04161925
212	0x3d925903	0.07145884
213	0x3ccc948a	0.024973173
214	0xbcaac274	-0.020844676
215	0x3cc4991f	0.023998795
216	0x3d398116	0.04528912
217	0x3bc11794	0.0058927033
218	0xbc4d36b7	-0.012525252
219	0x3bac47f6	0.005257602
220	0x3c0d6d65	0.008632039
221	0xbcaed55c	-0.021341972
222	0xbb36ba88	-0.0027882177
223	0xb98853bb	-0.00026002325
224	0xbc9867f6	-0.01860426
225	0x3dcaca0a	0.09901817
226	0x3d0bfba2	0.034175523
227	0xbce738f3	-0.028225398
228	0x3a0e9b53	0.0005440015
229	0xbbb6b80d	-0.00557614
230	0xbd07c555	-0.033147175
231	0x3c217fa8	0.009857096
232	0xbd059d9d	-0.032621015
233	0x3d900f40	0.07034159
234	0xbc27cb47	-0.010241336
235	0xbb322702	-0.0027183895
236	0x3d9705d2	0.07374157
237	0xbca6445b	-0.020296266
238	0x3ce5e377	0.028062565
239	0x3bc460a2	0.005992965
240	0xbd16982c	-0.036766216
241	0x3d3c5b0b	0.045985263
242	0x3bd2df0e	0.0064352816
243	0x3ba16cb3	0.004926288
244	0x3b9a91b1	0.004717075
245	0x3c4f75bc	0.012662347
246	0xbd31efeb	-0.043441694
247	0xbc60a31a	-0.013710761
248	0x3c07ed29	0.0082962895
249	0x3bd4eb1d	0.0064977542
250	0x3cb498a7	0.022045447
251	0x3b1f1a42	0.0024277125
252	0x3c82577f	0.015910862
253	0x3bbd62a7	0.0057795825
254	0x3ad96506	0.0016585893
255	0x3b39c9ce	0.0028349045

net.3.bias f4 [256]
0	0xbc2515c5	-0.010075991
1	0xbd369139	-0.04457209
2	0x3ce9f152	0.028557453
3	0x3c839e4c	0.016066693
4	0x3d39b5c2	0.045339353
5	0x3d1cb12a	0.038254894
6	0xbc295c9b	-0.01033702
7	0x3cdfb927	0.027309967
8	0x3cd1f2b5	0.025628427
9	0xbd19237f	-0.037387367
10	0x3bd7712b	0.00657477
11	0x3cf15e19	0.029463815
12	0xbcbb7717	-0.022883935
13	0xbba2fcc6	-0.0049739806
14	0xbcc607ed	-0.024173701
15	0xbc239504	-0.009984259
16	0x3d04e5c6	0.03244569
17	0x3c792a4e	0.01520784
18	0xbbd3886d	-0.006455472
19	0x3d15fc74	0.03661771
20	0xbd2ce774	-0.04221292
21	0xbcb63938	-0.02224408
22	0xbc25a91f	-0.010111122
23	0x3c06e079	0.008232229
24	0xbc69f193	-0.014278787
25	0x3c92ec7f	0.017935036
26	0xbc09399a	-0.00837555
27	0x3ba5c30a	0.005058651
28	0x3c7e1bd4	0.015509564
29	0xbd3021e7	-0.04300108
30	0xbc2526ff	-0.010080098
31	0xbb123206	-0.0022307648
32	0x3c90f9b1	0.017697187
33	0x3d1c3f52	0.038146324
34	0x3c85e225	0.016343186
35	0xbc794479	-0.015214079
36	0x3b8acbe3	0.004235731
37	0xbd000187	-0.031251457
38	0xbb7a9541	-0.0038235935
39	0x3ccda00c	0.02510073
40	0xbb3791a8	-0.0028010402
41	0x3d360ba2	0.044444688
42	0x3d381534	0.044942096
43	0x3d103aee	0.03521245
44	0xbd084b08	-0.03327468
45	0xbd53ea0b	-0.051736873
46	0x3d4227a1	0.047401074
47	0x3c468cd5	0.012118538
48	0x3d10688d	0.035255957
49	0xbcbf9709	-0.023387449
50	0x3cd92077	0.026504738
51	0x3d08c15a	0.03338752
52	0xba2b96a9	-0.00065455824
53	0xbd15d83d	-0.036583174
54	0x3cabf280	0.020989656
55	0xbca97850	-0.020687252
56	0xbd0164af	-0.03159016
57	0x3d2ec0dd	0.042664398
58	0x3c7538a4	0.014967117
59	0xbc44fc1d	-0.012022999
60	0x3c6b41b1	0.014358924
61	0xbd2a3b70	-0.04156059
62	0xbd19ed6e	-0.037579946
63	0xbbd95019	-0.006631863
64	0xbb06c0a9	-0.0020561612
65	0x3c9c6fbf	0.019096253
66	0xbccf4879	-0.025303112
67	0x3cd48f7f	0.02594733
68	0x3bcca6de	0.006245478
69	0x3d1159a1	0.035485867
70	0xbbdea069	-0.0067940247
71	0x3d473aeb	0.048640173
72	0xbcf2300a	-0.029563922
73	0xbd2e4578	-0.04254672
74	0xbc53b674	-0.012921918
75	0xbd11dcb1	-0.03561086
76	0xbc829fc2	-0.01594532
77	0xbc3f4686	-0.011674529
78	0xbc764100	-0.015030146
79	0x3d0acc48	0.033886224
80	0x3986da62	0.0002572118
81	0x3ccc1ca2	0.024915997
82	0xbcd8f342	-0.026483182
83	0xbd43a93e	-0.047768824
84	0xbcd1021e	-0.025513705
85	0x3c7af11f	0.015316277
86	0x3cf7c753	0.030246412
87	0xbd1284a9	-0.035771046
88	0xbd506f9b	-0.050887685
89	0x3adfff52	0.0017089641
90	0xbd02dcf3	-0.031948995
91	0x3c7c0b2f	0.015383526
92	0xbd177629	-0.03697792
93	0x3ce741f9	0.0282297
94	0xbd30b8c5	-0.04314496
95	0x3cca24f4	0.024675824
96	0xbc693731	-0.01423435
97	0xbcdf07c9	-0.027225392
98	0x3a376fe7	0.0006997571
99	0xbc1c9ad2	-0.009558396
100	0x3c90436a	0.01761027
101	0xbc16d4f2	-0.009206044
102	0x3c3365fa	0.010949606
103	0xbc597f99	-0.013275051
104	0xbd09fb39	-0.03368685
105	0xbc759008	-0.014987953
106	0xbc540bbe	-0.012942253
107	0x3cfe6fe4	0.031059213
108	0xbce08823	-0.027408665
109	0xbd067f82	-0.032836445
110	0xbd0526c5	-0.032507677
111	0xbcd8e11b	-0.026474526
112	0xbbde0269	-0.0067751897
113	0xbc79b321	-0.015240462
114	0xbd0c5e6f	-0.034269746
115	0x3c0716be	0.008245168
116	0xbd4000d4	-0.04687579
117	0x3cdf3a77	0.027249558
118	0x3cfbad68	0.030722335
119	0xbc236d81	-0.009974838
120	0xbbfa836b	-0.007645061
121	0xbcb8c000	-0.02255249
122	0x3a3c90a7	0.0007193186
123	0x3ced4841	0.028965117
124	0x3ba1c118	0.0049363486
125	0xbd294942	-0.04132963
126	0x3c498e9e	0.012302069
127	0xbb0b9358	-0.002129754
128	0x3cd01ebe	0.025405284
129	0x3d06d9bb	0.032922488
130	0x3cf8041a	0.030275393
131	0x3c388fa2	0.0112647135
132	0x3d44253f	0.047887083
133	0xbb4ea664	-0.0031532282
134	0xbd4fca98	-0.050730318
135	0x3ca0bd1f	0.01962143
136	0x3c3663f4	0.011132229
137	0x3d29d013	0.0414582
138	0x3d190e63	0.037367236
139	0xbcead33e	-0.028665181
140	0xbcd2c5b8	-0.025729045
141	0x3d2b55b9	0.0418298
142	0x3ca80d66	0.020514201
143	0x3af69ae6	0.0018814474
144	0xbcb2ca09	-0.021824853
145	0x3ccfefa8	0.025382832
146	0xbd54518c	-0.05183558
147	0xbd247794	-0.0401531
148	0x3c3f12ab	0.011662166
149	0x3cdda223	0.027054852
150	0xbb842074	-0.004032189
151	0xbd18e43c	-0.037327036
152	0x3d468c17	0.048473444
153	0xbaf5c801	-0.0018751622
154	0x3ce0a5eb	0.027422866
155	0xbc4ad2c3	-0.012379351
156	0xbc464a0f	-0.012102618
157	0x3d1cfb65	0.038325686
158	0x3d0b9c8d	0.034084845
159	0x3d22db10	0.039759696
160	0xbc7f1390	-0.015568629
161	0xbd5517b2	-0.05202455
162	0x3bc93acb	0.006141042
163	0x3a9990df	0.0011716149
164	0xbcc9c2b3	-0.024628973
165	0xbd298972	-0.041390844
166	0xbc868cc0	-0.016424537
167	0x3c62db65	0.013846253
168	0xbcb5ee24	-0.02220828
169	0x3c308e80	0.010776162
170	0xbcbaee19	-0.022818612
171	0xbbcd462f	-0.00626447
172	0xbc2bcb3f	-0.010485469
173	0xbcb87f7d	-0.022521729
174	0x3cea7411	0.028619798
175	0xbd2f8fd0	-0.04286176
176	0xbb65eb11	-0.0035082737
177	0xbc326849	-0.010889121
178	0xbcea8ddb	-0.028632095
179	0xbc11bfbd	-0.008895812
180	0xbc37139d	-0.01117411
181	0x3cbe4f83	0.023231274
182	0x3d0d93c6	0.034564756
183	0xbcb8c77e	-0.022556063
184	0x3bf4b4a0	0.0074678212
185	0x3b848788	0.004044477
186	0x3b9cd657	0.0047862935
187	0x3cf6466f	0.030062882
188	0xbceac377	-0.028657658
189	0xbd00214e	-0.03128176
190	0x3c68d436	0.014210751
191	0x3d2d197e	0.04226064
192	0x3c67fdfd	0.014159677
193	0x3b80d1bf	0.0039312537
194	0x3cdf15be	0.027232047
195	0x3cd1b7f2	0.025600407
196	0xbc7fe114	-0.015617628
197	0x3c37fb6d	0.011229378
198	0x3d49d1aa	0.049272217
199	0x3be1412a	0.0068742232
200	0x3cce49b5	0.02518163
201	0x3cc47681	0.023982288
202	0xbd2e12ff	-0.042498585
203	0x3c1d2b89	0.009592899
204	0xbd01879f	-0.03162348
205	0x3d06f908	0.03295234
206	0xbbd3df26	-0.0064658104
207	0x3ca2f78b	0.019893428
208	0x3bdf842a	0.006821175
209	0x3c77d310	0.015126005
210	0x3cc45489	0.02396609
211	0xbd44f4a9	-0.04808489
212	0x3b9e3533	0.004828119
213	0xbc79e5c1	-0.0152525315
214	0x3c991d12	0.01869062
215	0x3cd9f48f	0.026605872
216	0x3cac32f4	0.02102039
217	0x3accbcf6	0.001562028
218	0x3d35e55b	0.044408184
219	0xbd241993	-0.040063452
220	0x3d000f0b	0.031264346
221	0xbcdb76c7	-0.026790036
222	0x3b38776b	0.002814735
223	0x3d40294e	0.04691439
224	0x3c6cdf30	0.014457509
225	0x3c28464d	0.010270667
226	0xbce06ca1	-0.027395548
227	0x3d47c0a5	0.048767705
228	0xbbd16521	-0.0063902293
229	0x3beaf4af	0.007170282
230	0xbac46c5c	-0.0014985907
231	0x3d2c5881	0.04207659
232	0x3a718888	0.0009213765
233	0x3c0eac8f	0.008708133
234	0x3d21c7bb	0.03949712
235	0x3d09e11a	0.03366194
236	0x3cf49dc0	0.029860377
237	0x3cc92cd0	0.024557501
238	0x3d23b412	0.03996665
239	0xbc122f86	-0.008922463
240	0x3cb9cc44	0.02268041
241	0x3bf34343	0.0074237897
242	0xbcec0acb	-0.02881374
243	0xbcb25d16	-0.021772902
244	0x3d350a42	0.044199236
245	0xbc82628c	-0.015916131
246	0xbcf4c316	-0.02987818
247	0x3cf743b5	0.030183652
248	0x3c3f3684	0.011670712
249	0x3cb3fe4c	0.021971844
250	0x3d34273d	0.043982733
251	0x3b95304e	0.0045528775
252	0xbcf62f55	-0.030051867
253	0x3cf01c52	0.02931038
254	0x3ad271e6	0.0016055673
255	0xbbd17875	-0.0063925334

net.4.weight f4 [256]
0	0x3f790cda	0.97285235
1	0x3f7dff7b	0.9921796
2	0x3f7b7ce6	0.98237455
3	0x3f741c25	0.95355445
4	0x3f7025b7	0.9380755
5	0x3f7b7b6a	0.9823519
6	0x3f830e5c	1.0238757
7	0x3f77bf90	0.96776676
8	0x3f81e420	1.0147743
9	0x3f75e94f	0.96059126
10	0x3f787407	0.97052044
11	0x3f7df073	0.9919502
12	0x3f7195f3	0.9436943
13	0x3f812839	1.00904
14	0x3f751ebf	0.9575004
15	0x3f6e0298	0.9297271
16	0x3f80b1ff	1.005432
17	0x3f712e3d	0.9421118
18	0x3f825020	1.0180702
19	0x3f76f4a8	0.96467066
20	0x3f801f53	1.0009559
21	0x3f816e99	1.0111877
22	0x3f7e368f	0.99302
23	0x3f7087ae	0.9395703
24	0x3f6dd1ec	0.9289844
25	0x3f7121e0	0.94192314
26	0x3f63f242	0.8904153
27	0x3f7799a2	0.967188
28	0x3f704410	0.93853855
29	0x3f80ca45	1.0061728
30	0x3f83edca	1.0306942
31	0x3f735675	0.950538
32	0x3f8041d3	1.0020088
33	0x3f841bab	1.0320944
34	0x3f815eeb	1.0107092
35	0x3f847ccd	1.0350586
36	0x3f8cda8b	1.1004194
37	0x3f85fd8e	1.0468004
38	0x3f72c0bf	0.9482536
39	0x3f81249b	1.0089296
40	0x3f880d30	1.0629025
41	0x3f6242a8	0.8838296
42	0x3f7d83ba	0.99029124
43	0x3f866c16	1.0501735
44	0x3f7d1765	0.9886382
45	0x3f686f3e	0.9079474
46	0x3f73d144	0.9524119
47	0x3f80c8c2	1.0061266
48	0x3f84ae26	1.0365646
49	0x3f7d706c	0.9899967
50	0x3f6b201a	0.9184586
51	0x3f6a54bb	0.9153554
52	0x3f769fe1	0.96337706
53	0x3f7e4518	0.9932418
54	0x3f783119	0.9694992
55	0x3f7a5ecf	0.97800916
56	0x3f6f6467	0.93512577
57	0x3f803232	1.0015318
58	0x3f8921fd	1.0713497
59	0x3f77b7f4	0.96765065
60	0x3f8198e3	1.0124782
61	0x3f7f9b61	0.99846464
62	0x3f7441c9	0.9541288
63	0x3f6e529a	0.9309479
64	0x3f83fdbe	1.0311811
65	0x3f8008be	1.0002668
66	0x3f6e84e8	0.9317155
67	0x3f6eff99	0.9335876
68	0x3f708fbc	0.9396932
69	0x3f7dcc18	0.9913955
70	0x3f7b4f21	0.98167616
71	0x3f7c8760	0.98644066
72	0x3f7b1b05	0.98088104
73	0x3f83d390	1.0298939
74	0x3f7de74f	0.99181074
75	0x3f5c30c5	0.86011916
76	0x3f790a26	0.9728111
77	0x3f85805b	1.0429796
78	0x3f759c10	0.9594126
79	0x3f75403f	0.95801157
80	0x3f776ee3	0.96653575
81	0x3f83be64	1.0292478
82	0x3f82a2f2	1.0205977
83	0x3f5abfcc	0.8544891
84	0x3f6d161b	0.92611855
85	0x3f83fb25	1.0311018
86	0x3f71cd4d	0.9445389
87	0x3f805788	1.0026712
88	0x3f795288	0.9739156
89	0x3f7de2e9	0.9917436
90	0x3f80002a	1.000005
91	0x3f6881b8	0.90822935
92	0x3f941384	1.1568456
93	0x3f748cd2	0.95527375
94	0x3f794c27	0.97381824
95	0x3f7eca03	0.99526995
96	0x3f831951	1.0242101
97	0x3f742c34	0.9537995
98	0x3f70eb70	0.9410925
99	0x3f803351	1.001566
100	0x3f7bb7eb	0.9832751
101	0x3f8625af	1.048025
102	0x3f7c2cc3	0.985058
103	0x3f79317c	0.9734113
104	0x3f80879b	1.0041384
105	0x3f8093ec	1.0045142
106	0x3f6ce0c8	0.9253049
107	0x3f79ca21	0.9757405
108	0x3f80fce2	1.0077174
109	0x3f85de84	1.0458531
110	0x3f6c25d5	0.9224523
111	0x3f777064	0.9665587
112	0x3f5e825c	0.8691766
113	0x3f77d71d	0.9681261
114	0x3f7a269f	0.9771518
115	0x3f7cac8a	0.98700774
116	0x3f70a809	0.940064
117	0x3f846577	1.0343465
118	0x3f71da69	0.9447389
119	0x3f70c638	0.9405246
120	0x3f827bac	1.0193992
121	0x3f7e0495	0.9922574
122	0x3f75ad0a	0.9596716
123	0x3f805eb7	1.0028905
124	0x3f83c30b	1.0293897
125	0x3f6a77b9	0.9158893
126	0x3f828e78	1.0199728
127	0x3f647278	0.89237165
128	0x3f7d189c	0.98865676
129	0x3f8015af	1.0006617
130	0x3f800cd6	1.0003917
131	0x3f6c9fd7	0.92431396
132	0x3f744ae4	0.95426774
133	0x3f7f9803	0.99841326
134	0x3f68ff26	0.91014326
135	0x3f678fe3	0.9045393
136	0x3f7b269a	0.98105776
137	0x3f741b4a	0.9535414
138	0x3f7e88d9	0.9942756
139	0x3f84cfae	1.0375879
140	0x3f767099	0.9626556
141	0x3f750c48	0.95721865
142	0x3f818252	1.0117896
143	0x3f82850c	1.0196853
144	0x3f757895	0.9588712
145	0x3f76f0da	0.9646126
146	0x3f6a3b27	0.9149651
147	0x3f65acd3	0.89716834
148	0x3f81c2fa	1.0137627
149	0x3f750b3a	0.95720255
150	0x3f7f27bf	0.9967002
151	0x3f6eaee9	0.9323564
152	0x3f7e98ac	0.9945171
153	0x3f79df92	0.97606766
154	0x3f821fc0	1.0165939
155	0x3f8296e1	1.0202295
156	0x3f861bcb	1.0477232
157	0x3f7460c1	0.95460135
158	0x3f732281	0.94974524
159	0x3f5d5727	0.8646111
160	0x3f80e8f0	1.0071087
161	0x3f7349aa	0.9503428
162	0x3f7847f1	0.96984774
163	0x3f875f5f	1.057598
164	0x3f64d0ca	0.89381087
165	0x3f730803	0.949341
166	0x3f85c1f0	1.044981
167	0x3f8513e6	1.0396698
168	0x3f75c348	0.960011
169	0x3f50e86f	0.81604666
170	0x3f7edf5d	0.99559575
171	0x3f7f88ff	0.99818414
172	0x3f725b9e	0.94671047
173	0x3f8006d4	1.0002084
174	0x3f818113	1.0117515
175	0x3f74813c	0.95509696
176	0x3f6d8e13	0.92794913
177	0x3f6e21e6	0.93020475
178	0x3f79014a	0.9726759
179	0x3f735b20	0.9506092
180	0x3f7c6d55	0.9860433
181	0x3f6a02fb	0.914108
182	0x3f7d7900	0.99012756
183	0x3f73234c	0.94975734
184	0x3f8ce258	1.1006575
185	0x3f7aa39e	0.9790591
186	0x3f79b530	0.97542095
187	0x3f723817	0.94616836
188	0x3f83cc28	1.0296679
189	0x3f7c1eec	0.98484683
190	0x3f7e7923	0.9940359
191	0x3f776829	0.9664331
192	0x3f7e9c9a	0.99457705
193	0x3f78f0c0	0.97242355
194	0x3f833309	1.024995
195	0x3f78c23d	0.97171384
196	0x3f87ba58	1.0603743
197	0x3f83fc78	1.0311422
198	0x3f732fb9	0.94994694
199	0x3f7717eb	0.9652087
200	0x3f7285bf	0.9473533
201	0x3f90529a	1.1275208
202	0x3f753a53	0.9579212
203	0x3f641b62	0.8910428
204	0x3f7e1c96	0.9926237
205	0x3f783737	0.9695925
206	0x3f898368	1.0743227
207	0x3f74974f	0.9554338
208	0x3f661816	0.898805
209	0x3f6bfbf9	0.92181355
210	0x3f86c5dd	1.0529133
211	0x3f6c78b7	0.92371696
212	0x3f7b76ae	0.98227966
213	0x3f7690af	0.9631452
214	0x3f8583f6	1.0430896
215	0x3f7d0967	0.9884247
216	0x3f741c32	0.9535552
217	0x3f737b63	0.9511015
218	0x3f7919b5	0.9730485
219	0x3f78b5ed	0.97152597
220	0x3f7b2fdb	0.98119897
221	0x3f7db315	0.9910138
222	0x3f802208	1.0010386
223	0x3f80d088	1.0063639
224	0x3f8a3172	1.079634
225	0x3f7de48e	0.9917687
226	0x3f70a17b	0.939964
227	0x3f73c70d	0.952256
228	0x3f71c05a	0.9443413
229	0x3f834b4c	1.0257354
230	0x3f748a74	0.9552376
231	0x3f805692	1.0026419
232	0x3f726258	0.9468131
233	0x3f8abad9	1.0838271
234	0x3f7a7633	0.9783661
235	0x3f79c0a8	0.97559595
236	0x3f7ef34a	0.9958998
237	0x3f80ce01	1.0062867
238	0x3f7e244d	0.9927414
239	0x3f833099	1.0249206
240	0x3f846596	1.0343502
241	0x3f777f1e	0.9667834
242	0x3f939127	1.1528672
243	0x3f7266a8	0.9468789
244	0x3f76b36a	0.96367514
245	0x3f7db147	0.9909863
246	0x3f77fb96	0.96868265
247	0x3f857231	1.0425473
248	0x3f81be94	1.0136285
249	0x3f7818f4	0.96913075
250	0x3f6f7064	0.9353087
251	0x3f8009cd	1.0002991
252	0x3f81db85	1.0145117
253	0x3f605f04	0.8764498
254	0x3f787c2c	0.9706447
255	0x3f80bc88	1.0057535
